model/acrobot_dql/net.pth (torch, 39648 bytes, 6 tensors)

0.weight f4 [128, 6]
00000000: d87d f93e 0b0c 5a3f 7d5a 353e 597e e53b
00000010: d0d0 6abd 7ee7 0dbe b7eb 94be cc23 113e
00000020: f304 4fbc 0d6e d83e f8a5 55be 7bf7 973e
00000030: f26d 99be 48b3 9ebe ce7f 1dbf a997 07bf
00000040: d7f9 39bd ae32 37bd 5447 643d fd2c 83be
00000050: 96bc d63e f0f5 f1be 9aa3 1c3d 790c 793d
00000060: 5336 e5be 0646 2cbe a77f 9fbe cbf1 083f
00000070: 7abf 743e 0f68 46be a906 f93e dd9b 383f
00000080: e4e8 b63e 4191 d93e 4c97 fbbd aae2 5ebd
00000090: ee1c 93be 2781 c73e 4eef d7be bc5b 1bbe
000000a0: d69a ea3b 4b65 3e3e 522c 78be dc97 d7be
000000b0: f15b 89be 06bd bd3e e057 143e 7117 543e
000000c0: 6f8c b83d e46f 96be 4e90 87be f624 4cbf
000000d0: 8a0c b73d e5bf 873e 9ed7 1dbd 43ea 7f3d
000000e0: b3cd 303e 05d1 e8bb f96c ac3d 8645 9e3e
000000f0: 6b6c 2dbe 9030 04bf 88ac 6b3e 1f35 f13e
00000100: cbd2 5e3d 9c8f 163d ac2f b73e e1c2 ac3e
00000110: 36ad babd d11a b7bd e042 193e a523 ac3d
00000120: 6001 6b3e 8ba2 40be edc0 a73d edaa a23e
00000130: dfc1 ba3c 4a00 2abe 0d35 c93d e693 abbe
00000140: fad3 6e3e d2dd ba3e 3d7b 1abe d951 60bd
00000150: 6836 7cbd 5f9b 673d 4b4d 5fbd 5805 9bbe
00000160: 352a 6c3e 8485 b2be b963 9f3e 628a a73e
00000170: f123 90bd c735 913d 1cb6 093e 7627 9c3e
00000180: 6428 2a3e 6462 9f3d 9016 003f 3316 f3be
00000190: ffeb 39be 0aa3 363e 17f6 f03e 3094 fb3c
000001a0: 7035 fb3e f8ed f63e 8a9c 833c c42c edbd
000001b0: 14b9 dcbe 0861 bebe e2e2 07bf 78b1 9ebe
000001c0: 76ad 913e c55a 9abe 5ae3 943e 8aa9 62be
000001d0: 8f88 2a3e 5a77 aabe 12dc cdbd beba dfbd
000001e0: f159 a4be 80ea acbd 257e 1fbf 85a4 f53e
000001f0: ac0d 2f3d 2ff5 ecbd c007 a0be 33da 41bf
00000200: 4ef8 b7be f599 1b3e f7fc 9ebe 5238 54be
00000210: ed24 553d 887a db3e a3a3 d5be 9e0c afbc
00000220: 82d0 b4be 007c 6c3e 81af a83e 87dc e7be
00000230: 51f8 9ebe 344d f63e 96c3 f4bd 1fd7 aebc
00000240: 32f1 45bf b78e c63d 7852 86be 6b19 ab3e
00000250: 3cac 943d ff08 1a3e 28ee 9c3e 4ccd 23bf
00000260: 85b3 223e 4185 443f e498 233e 34be 8fbe
00000270: 7cd7 793e 8412 b4be fed4 0d3f a7f0 1c3e
00000280: ccc6 7a3e dd57 60bd 5b14 e7be 6ff9 e0be
00000290: 973c 96be 698e c8be 3620 9bbb dc69 edbc
000002a0: 7379 00be 8371 0b3f 6a55 b9bd f37d 29bf
000002b0: d0f1 273e 4985 533e 7d22 89be b31d dabd
000002c0: 8826 cb3e 0078 3ebd 5ab3 55bc 1dd8 06bc
000002d0: d66b 2bbf 2e98 fd3e a605 a8be 108d 96be
000002e0: 64fa c7bd 21d5 63bc a4ca a03e ece1 2c3f
000002f0: 8bbb 8bbe e5e1 d53d d2d0 adbd ba69 2d3e
00000300: 3729 9dbe 54ae a13e 4f26 023e d7f1 01be
00000310: ada5 a83e 8a54 6dbe 8223 8cbc 1ebc 883e
00000320: 277e c33e 5004 ff3b 2803 1fbe adb2 79be
00000330: 6413 a8be 28f6 b43e 4a1b e9bd 2991 54bd
00000340: 525f 34be 34cd 8b3e d7e4 3c3d 96d0 34bf
00000350: bee2 b13e a6e4 ebbd 0cf7 b13d 151e 6fbd
00000360: ed50 ed3d 209d 0fbe 4e87 de3e 53d5 24be
00000370: 0787 e03d e181 c5bd f1eb 413e ddb3 a63e
00000380: cf45 01bf 3989 f4be c6a1 f83c 1061 933d
00000390: e3e0 0ebf 1d98 ab3e 9d75 d03e 04d6 ca3d
000003a0: cb4f c73d 74af 1abe 8f5d c6be 22c7 12be
000003b0: 1a11 a43d a035 4bbe 3c09 98be f099 1abd
000003c0: 0ff7 29be 16bd 993e 8ac2 26bf f7c4 2d3e
000003d0: 524f 5a3c 3f2e f63b d7fe d83e 613e 163f
000003e0: 8e48 d93e 1fe1 1bbf f730 b03d 631c fb3d
000003f0: addd 0c3e 8e2f 02bf b70f 8cbe 63e3 1b3e
0.48728824 0.85174626 0.177103 0.007003587 -0.057328045 -0.13857839 -0.29086086 0.14173812
-0.012635457 0.42271462 -0.20864093 0.29681 -0.29966694 -0.30996156 -0.6152314 -0.5296579
-0.04540428 -0.044726066 0.055732086 -0.2562026 0.41940755 -0.47257948 0.03824196 0.06080291
-0.4476801 -0.16823587 -0.31152079 0.53493947 0.23901168 -0.19375633 0.48637894 0.7211283
0.35724556 0.42493632 -0.12284717 -0.054415382 -0.2873301 0.38965723 -0.42174762 -0.15171713
0.007159571 0.18593328 -0.24235657 -0.42108047 -0.26827958 0.37058276 0.14486647 0.20712067
0.090111606 -0.2938224 -0.26477283 -0.797439 0.089379385 0.2651359 -0.038535707 0.06247927
0.17265968 -0.007104995 0.084192224 0.30912417 -0.1693589 -0.516366 0.23015034 0.4711084
0.054400247 0.03675805 0.35778558 0.3374243 -0.091150686 -0.08940662 0.14966917 0.08405236
0.22949743 -0.18812005 0.081910945 0.3177103 0.022797523 -0.16601673 0.09824572 -0.33511275
0.2332305 0.3649736 -0.15086074 -0.054765556 -0.061575323 0.056544658 -0.05451707 -0.30277514
0.23062976 -0.3486749 0.3113077 0.32722765 -0.07038105 0.07090335 0.13448375 0.30498856
0.1661697 0.077824384 0.5003443 -0.47477874 -0.18156432 0.17835632 0.47062752 0.03071031
0.49064207 0.4822843 0.016065855 -0.11580804 -0.43109953 -0.37183404 -0.5308057 -0.30994773
0.28452653 -0.30147377 0.29079705 -0.22134987 0.16653655 -0.33294183 -0.10051741 -0.1092429
-0.3209987 -0.08443165 -0.62301856 0.4797708 0.042737648 -0.115702026 -0.31255913 -0.7572357
-0.3593163 0.15195449 -0.31052372 -0.2072461 0.05203717 0.4286692 -0.41726407 -0.021368321
-0.3531533 0.23094177 0.329464 -0.45285437 -0.31048825 0.48105776 -0.119513676 -0.021342812
-0.7732116 0.096951894 -0.26234794 0.3341783 0.072594136 0.15042494 0.3065045 -0.63985133
0.15888794 0.7676583 0.15976292 -0.280748 0.24398607 -0.35170376 0.55403125 0.15326177
0.24489897 -0.054771293 -0.45132717 -0.43940303 -0.293431 -0.3917115 -0.0047340645 -0.028981142
-0.12546329 0.5447008 -0.090494946 -0.6620781 0.16400838 0.20656313 -0.26784125 -0.10650196
0.39677835 -0.04650116 -0.013043249 -0.008230236 -0.6696142 0.49530166 -0.3281681 -0.29404497
-0.09764555 -0.013905794 0.31404603 0.6753223 -0.2729152 0.104434766 -0.08487095 0.16934863
-0.30695507 0.31578314 0.12709926 -0.12689911 0.329389 -0.2317678 -0.017106775 0.26706022
0.38182184 0.0077824965 -0.15528548 -0.24384566 -0.32827294 0.35344052 -0.11382158 -0.051896248
-0.17614487 0.27304995 0.046116676 -0.70630777 0.34743303 -0.115182206 0.086896986 -0.058378298
0.11587701 -0.14024782 0.43462604 -0.16097002 0.109632544 -0.09643913 0.18937661 0.325591
-0.50497144 -0.47760943 0.030350577 0.071962476 -0.558119 0.3351449 0.40714732 0.099041015
0.09732016 -0.15105993 -0.38743255 -0.14333776 0.08011074 -0.19844675 -0.29694545 -0.037744462
-0.16598152 0.30027074 -0.65140593 0.16969667 0.0133245755 0.007512837 0.42381927 0.5868893
0.42438167 -0.6089038 0.08603089 0.12261274 0.13756438 -0.5085381 -0.2735574 0.1522346

0.bias f4 [128]
00000000: 8610 3cbc 55ca ea3e 9822 0e3f 6df4 913e
00000010: f19f f2be cd27 ae3d b333 c5be e1f8 253e
00000020: 2bb2 aebd 1e60 263f 9f63 3e3e bc7b f63e
00000030: 910d a5be f152 083f 7ddb 4bbe 42e7 013f
00000040: 5076 8f3e 2d2e 7a3e cfbc b7be 8cbf 153f
00000050: 4e7c ad3e d81c ac3e eac0 7dbe 0703 f33e
00000060: d5ad a63d a391 dbbe 0637 243e e2ed a1bb
00000070: fe75 b83d ee6f 7b3e 7987 cbbd 8334 943e
00000080: 61e0 86be 8ee8 573e 6c1d c3be a732 0d3f
00000090: 2c4f 163f 63bb 57bd 0740 94be 1f9a 19bf
000000a0: 58d3 1a3f c9b3 0f3e 0eba e73e 5347 c4be
000000b0: 84ac 453c 59c8 e6be 097d 05be 538b d33e
000000c0: 1c4b d63e aeb7 da3e 20d9 e0be e38e 133f
000000d0: 272f 243e a46f c23d ed60 603e a0f2 613e
000000e0: 8664 a4be db6f 923e d882 7abe e1ca a33e
000000f0: cfb4 0d3f 1280 943e ebc0 ea3e 1417 ff3e
00000100: ed49 c4bc 7789 dfbe 3c94 e33e 775c 943e
00000110: 0e53 b53e 5a20 2fbe 928e f6bd 6d6b e93e
00000120: a142 ed3e b961 ed3e 9160 c9bd f72b eabe
00000130: 1dee d33e 4a61 3a3e 4bf8 debe 158e a93d
00000140: ce8b 723e 6cec 2c3c 6280 e7be ab0b e93d
00000150: 018a 633e 1e7f dd3e 316c 033f db23 0b3f
00000160: dc28 3f3e 3775 1c3e b4ea 4ebe bcc4 ae3e
00000170: 9634 133e c64d 123f f45f 5ebe 4ed2 9bbe
00000180: 3353 c13e e43b 11bf a360 9abe b11a 2dbe
00000190: 1bec 0d3e f25c 59be be6e 243a de06 b1be
000001a0: abd0 4d3e d1aa d13e a80e af3d 5c62 003f
000001b0: 1437 f13e 4ede b2be 0594 ec3d ba5e 2c3e
000001c0: 990d 9dbe d6b9 5cbe 09c4 f9be c2b1 d3be
000001d0: ef51 b8be 829d c13e 86c7 503e 0588 94bd
000001e0: 33b7 703e 95a1 7f3e b681 76be 42d2 033f
000001f0: 95d4 f03d 6fe8 93be 3a82 8d3c 819b 95be
-0.011478549 0.45857492 0.55521536 0.28506795 -0.4738765 0.08503685 -0.38516006 0.16208221
-0.085300766 0.64990413 0.1859269 0.48141277 -0.32236913 0.5325156 -0.19907947 0.50743496
0.28019953 0.24431677 -0.35886237 0.584954 0.338839 0.33615756 -0.24780622 0.47463247
0.081386246 -0.4288455 0.16036615 -0.004941688 0.0900688 0.24554417 -0.09937949 0.28946313
-0.26343063 0.21084806 -0.38108385 0.55155414 0.58714557 -0.05266894 -0.289551 -0.60000795
0.60478735 0.14033426 0.45259136 -0.38335666 0.012065057 -0.45074728 -0.13035978 0.41317233
0.4185418 0.4271826 -0.43915653 0.576399 0.16033612 0.0949395 0.21911974 0.2206521
-0.32107943 0.28600964 -0.24463975 0.31990722 0.55354017 0.2900396 0.4585031 0.49822295
-0.023961032 -0.43659565 0.4444903 0.28976795 0.35414928 -0.17102185 -0.12038912 0.45589772
0.46339896 0.4636362 -0.09832872 -0.45736668 0.41392604 0.18201175 -0.43548808 0.08279053
0.23686144 0.010554414 -0.45215136 0.113791786 0.22220613 0.43261045 0.5133696 0.54351586
0.1866793 0.15279089 -0.2020672 0.3413447 0.14375529 0.5714992 -0.2171629 -0.30433887
0.37758788 -0.5673201 -0.30151853 -0.16904713 0.13859598 -0.21226862 0.00062726054 -0.34575552
0.20099132 0.40950635 0.08547717 0.50150084 0.47112334 -0.3493523 0.1155167 0.1683301
-0.30674437 -0.21555266 -0.48782375 -0.41346556 -0.3600001 0.3781548 0.20388612 -0.07252506
0.23507385 0.24963982 -0.24072918 0.514927 0.11759297 -0.2888827 0.01727401 -0.29220203

2.weight f4 [64, 128]
00000000: a379 823d f975 e73d 2e82 0b3e 34c4 433d
00000010: 7948 24bd 9b4b ab3d 4936 2ebe 2555 ac3c
00000020: 2572 d43d 8561 193d 7954 693d 1a28 4d3e
00000030: 4e7c 40be dd34 203e 13df 803c 21a6 083e
00000040: d8bc a63d 3e60 a63d 9af0 633d f9c6 8b3d
00000050: 0a16 053d 75a4 e43d a949 dcbc 9308 173e
00000060: 6975 533d 87b6 f4bc 193e e13d 487d 783e
00000070: 7ddd 503d 938c 5e3e 0e7e ef3d 0756 243e
00000080: 7406 a0bd 843e 163e d643 37bc 351a e63c
00000090: a936 183d 29f7 9b3d 4c4c 833d edfd 3abe
000000a0: aa3c af3e 3f79 073e 8ac8 e93d 11d4 aa3d
000000b0: 9468 183d 2eb1 0ebe b404 f53d 9d71 f83d
000000c0: a337 983d 1bd9 fd3c 79e6 10bc 7da8 363e
000000d0: 1f14 433d 2ac0 8a3d a7a0 e03d f5ea a13d
000000e0: fe65 64bd 46b9 063e 5fb8 99bd fb13 cc3d
000000f0: f4e0 813d 8e8a 033e 96d1 643e 187e a33b
00000100: 09b6 bebc 6520 25bc 03e6 e63d 00a0 173e
00000110: 59a2 363e 82f5 06bd c985 863c 896c 0a3e
00000120: 042f f93d 1c74 753d c06f 8539 a373 83bd
00000130: ebd3 e43c 68c4 8c3d 14c6 b8bd 10e9 c4bc
00000140: 544f 443d 7769 223e e037 8fbd eb7a 023e
00000150: 93e9 4b3d 81bd 733c a6bc 9f3d 4bb8 883b
00000160: 4cf0 063e 3e0b 083e b1e1 9ebd 6cf7 cf3b
00000170: a75a fb3d be4b 213e 026b c03d b758 613d
00000180: 25e5 233e 0668 903c 8d72 0cbe 6410 d5bd
00000190: 8074 533d 3250 313d 0a52 5f3d 7ed9 6fbd
000001a0: fc13 87bb bbf2 5c3e 2ad5 f23d 8756 633d
000001b0: 95f9 943d e732 4b3d 981d 003e b366 c03d
000001c0: 9dab f73c 18a6 5abd c65f 873b 7746 cbbd
000001d0: db3e ffbd be94 d03d de8d f03d 2e94 2e3d
000001e0: dbc0 cb3d 32ae 9d3d 8f1e 40bd eaf9 e23e
000001f0: e56d fa3d 2af9 393d 1f4a 23bc 496e 8d3d
00000200: eaa2 ddbc 2b27 3b3d 1851 c33d fa5a 36bd
00000210: a614 6dbe 3f0b bd3d b57e 823d 5651 edbd
00000220: 50ab b1bb f962 8d3d 2d10 5fbe 2ea3 d2bd
00000230: 9e40 6b3e 6467 56bd b97c 8cbc d20f 8fbc
00000240: ee45 d53c c73a e63c dc50 88bd 288a 643d
00000250: b3d9 81bc 3edd 953d 2b5c 96bc 9531 d3bd
00000260: 19d2 343d ad64 2cbd e69c 88bd 85ea 78bd
00000270: 9c23 a73d 8944 d9bd 60e3 453d 4865 9d3d
00000280: cb05 fabc cb9b 0cbd c384 9d3d 3f86 9fbd
00000290: 37d9 083a 14f8 8e3d e593 02be 2586 223d
000002a0: 7568 a63d 31c2 31bd 31b9 283d 3087 823d
000002b0: 704b 30bc fa46 b3bc ed79 d33d a42a 9cbc
000002c0: 35de ecbd d6f2 903d d254 d8bc ee77 0ebe
000002d0: f35e 1b3e 6e72 043d b48b 0a3b bb65 e1bd
000002e0: 3196 28bd e2c4 0cbe 51f9 cbbd 0c47 c4bd
000002f0: db35 d7bc 2087 583c 1fa8 95bd 8c55 653d
00000300: 8273 a4bd 02dc 323e 9bce a6bb ab00 f1bc
00000310: b2f0 a1bd 7ef1 03bc 68d3 7a3e f632 113b
00000320: ae3d f3bc bc11 8d3d 9af1 293d 5f1f 9c3d
00000330: af8f 733d c4f2 12bd 9ecb 73bb 377c be3d
00000340: 0dbe b13d 1b0e 10bd 135f 9dbd 681c 013e
00000350: 73d2 aa3c 25a9 5f3d 4f20 1dbd f5f2 613d
00000360: c5ca e9bd 08cd 90bc 382f a53c 4eff 1a3e
00000370: b242 1b3e 9959 9bbd a6b8 45bd 6f9b 053e
00000380: 92d5 f83c f001 3a3b 9c7b 2d3e 1274 0e3e
00000390: 3280 f33d 2921 fb3d 2a38 1bbd f90d b0bc
000003a0: 8995 bbbc 5ac9 eabd 2c5d 21be 08bf 61bd
000003b0: 4f5e 053d 7601 3a3d 73fc 72bd 805d cf3d
000003c0: 0294 023e 5bee 2b3e 3d80 a1bb 9be3 8abd
000003d0: 8183 873c fbcf e03c d38e d03d f9ee 4e3d
000003e0: 8f4e 5b3c 3539 0e3d 6b52 0abd fd57 55be
000003f0: d673 3b3d cbcf 1abe 108e e53c 52ca 33bd
0.063708566 0.113017984 0.13623878 0.047794536 -0.040108178 0.0836403 -0.17012896 0.021036694
0.10373334 0.037446517 0.056965325 0.20034829 -0.18797418 0.15645166 0.01573137 0.13344623
0.08141488 0.081238255 0.055649377 0.068250604 0.03249172 0.1116418 -0.026890593 0.14749365
0.051625643 -0.029872192 0.10998172 0.24266541 0.050992478 0.21733312 0.11693965 0.16048442
-0.07813731 0.14672285 -0.011185607 0.028088668 0.037161503 0.076155014 0.06411037 -0.18260927
0.3422597 0.13229845 0.11415203 0.0834123 0.03720911 -0.13934776 0.11963788 0.12131045
0.07432487 0.030987313 -0.008844011 0.1783771 0.04762661 0.06774934 0.10968142 0.079061426
-0.05576133 0.13156614 -0.07505869 0.099647485 0.063417345 0.12845823 0.22345576 0.004989397
-0.02328016 -0.010078524 0.1127434 0.14807129 0.17835368 -0.03294898 0.016421216 0.13517965
0.12167171 0.059925184 0.00025450997 -0.0641854 0.027933082 0.06873399 -0.090221554 -0.024036914
0.047927216 0.15860544 -0.06993079 0.12742202 0.0497833 0.014876724 0.07799654 0.00417236
0.13177603 0.13285539 -0.07757891 0.0063466337 0.1227315 0.1575155 0.0939541 0.055016246
0.1600538 0.017627727 -0.13715573 -0.10403517 0.051624775 0.04328937 0.054521598 -0.058557026
-0.0041222554 0.2157697 0.11857064 0.05550244 0.072741665 0.04960909 0.12511289 0.09394588
0.030233199 -0.053381056 0.00413129 -0.099255495 -0.124631606 0.1018462 0.11745809 0.042621784
0.09948894 0.07699241 -0.046904143 0.44331294 0.12227992 0.045403637 -0.009966402 0.06905801
-0.027055223 0.04569165 0.09536952 -0.044520356 -0.23152408 0.09230661 0.06371824 -0.11587779
-0.0054220334 0.06903643 -0.21783514 -0.1028503 0.22973868 -0.052344695 -0.017149316 -0.017463598
0.026034322 0.0281042 -0.06656048 0.05579582 -0.015850877 0.07317589 -0.018354496 -0.103121914
0.044145677 -0.0420882 -0.06670551 -0.06077053 0.08161089 -0.10608775 0.048312545 0.076853335
-0.03052034 -0.034328263 0.07691338 -0.07789277 0.0005220356 0.06980911 -0.1275173 0.03967871
0.08125392 -0.043398086 0.041192237 0.06373441 -0.010760173 -0.02188443 0.1032599 -0.019063301
-0.1156582 0.07077567 -0.026407633 -0.13912937 0.15172939 0.03233569 0.0021140398 -0.11005732
-0.04115886 -0.1374698 -0.09959663 -0.095838636 -0.026270797 0.01321581 -0.07307457 0.055989787
-0.08029844 0.17466739 -0.0050905473 -0.029419264 -0.07907237 -0.008053182 0.24494708 0.002215562
-0.029692497 0.06888148 0.041490175 0.07623171 0.0594632 -0.03587605 -0.0037200223 0.09301036
0.086788274 -0.035169702 -0.076841496 0.12608492 0.020852303 0.05460467 -0.03836089 0.055163343
-0.11415628 -0.017675892 0.020164117 0.15136454 0.15162161 -0.07585449 -0.048271798 0.13047574
0.030375276 0.0028382502 0.16941684 0.13911465 0.11889686 0.12262184 -0.03789536 -0.021491038
-0.022898452 -0.11464186 -0.15758198 -0.055113822 0.032560643 0.04541155 -0.059322786 0.101252556
0.12751773 0.16790144 -0.0049286173 -0.067816935 0.016542198 0.027442923 0.101834916 0.05052087
0.013385429 0.034722526 -0.033770006 -0.20834346 0.045764767 -0.15118329 0.028021842 -0.04389412

2.bias f4 [64]
00000000: d9de 613e 63d3 d6bd 6880 713e e03c 5e3d
00000010: a1b6 0a3e 7eb8 f03d 6d2d dabc 859a 333e
00000020: f8b6 a4bd d922 88bd 7508 e43d 1a69 d53b
00000030: 5f9a 1e3e 4b41 3ebe f1c3 3abd ffcc 5d3e
00000040: 1bae 033e 2e43 863e 48eb 3dbd 38e5 453e
00000050: ad2c 7bbc a9ee fcbc 26a9 5a3e 6d74 063e
00000060: 3de7 8a3e 53e4 213b ad6f 14be 6249 fd3d
00000070: 52a7 e6bd a2db 2c3d ebbc 6b3e 965c 0abe
00000080: 235e e5bd 70c9 263d 187b 0f3e b3f5 28be
00000090: 5934 ff3d 2409 11be b8a0 36bd 61fc f33d
000000a0: eada ec3d 5abb 003e 995e 0a3e 4712 c73d
000000b0: d0eb f13d fd2d 693e 45dd 33be 2117 d23d
000000c0: 5c83 5b3e 20c3 f23d ae8c 2a3e 67a2 2c3e
000000d0: e95c 973b 2143 8c3e 2519 37be 65d7 f2bb
000000e0: e852 ff3d 55f3 653e 6a9a 833e 9d78 cc3d
000000f0: 2978 b13d 102c 443e 05e2 473e 8576 553e
0.22057666 -0.104895376 0.2358414 0.054257274 0.1354623 0.11753939 -0.026632989 0.17539413
-0.08042711 -0.06647272 0.111344256 0.006512773 0.15488575 -0.18579595 -0.04559702 0.21660231
0.12859385 0.2622313 -0.04636696 0.19325721 -0.015330476 -0.03087552 0.21353588 0.1313035
0.27129546 0.0024702742 -0.14495726 0.12367512 -0.112623826 0.042201646 0.23021285 -0.13511881
-0.11199596 0.04071945 0.140118 -0.16499977 0.124611564 -0.14163643 -0.044586867 0.11913372
0.11565192 0.12571469 0.13512649 0.09720283 0.11812556 0.2277145 -0.17564876 0.10258318
0.21436828 0.118536234 0.16655228 0.16858827 0.00461923 0.27394965 -0.17880686 -0.007410931
0.12466985 0.22456105 0.25703746 0.09983943 0.08665497 0.19157434 0.19519813 0.20845993

4.weight f4 [3, 64]
00000000: 2c6b 3cbe 5aaa 443c cc84 59be a1cb 6abe
00000010: fbb0 81be dc9d 8dbe ed4e a83e 9a59 f6bd
00000020: c0f6 ff3e 15c5 ae3e 284c 36be e0ad 9bbd
00000030: 57f1 82bc 2662 a23e 77f8 893e 3c66 9bbd
00000040: d45d c0bd 535a 6ebe 5f06 823e 3640 31be
00000050: bae7 403e 6899 263d 86d1 58be 25b9 56be
00000060: 76df 49bc f31d aabe 5c74 eb3d 592e c5bd
00000070: e217 093e 6f71 d73d 3f21 4fbd 9b6e e93e
00000080: 2308 fd3e 6743 ddbe a511 5abe 5723 923e
00000090: 2e6f a6be a86c 613e 67fb d1be 7822 3abe
000000a0: 499b 40be 9fff 0ebe a9ed 63be f74d e6be
000000b0: b7b8 29be dfdc 54be 918b 8c3e b55b 0bbe
000000c0: ba7e 3dbe fad8 29be 144b 67be ef6b 64be
000000d0: fd8a 07bf 89c1 43bd 4f7b 6a3e fe07 643e
000000e0: b31f b8bd 04d0 46be c12f 2fbe 0707 98be
000000f0: 0047 98be 425f 3abe 60c9 4bbe 0e0b f9bd
00000100: 86f1 8ebd 866d 8d3d ee09 4bbe 6d5d 98bd
00000110: 504f 89be 58fc a0be 616a e33e f412 71be
00000120: 7899 b43e bf2c b93e cef5 8fbe b091 41bd
00000130: 65e8 59be 833d c43e 27e6 2d3e dda8 3abe
00000140: c79a febd 2ced 43be ac09 273e f57f 16be
00000150: 9847 483e 73ec 04bb 5300 2abe 7f7d 28be
00000160: ff0b 28be d690 2d3e 5849 463e 2206 24be
00000170: 997a 713e bc77 b03d 5490 d2ba 2fbb c13d
00000180: fe33 013f 907b debe 578e 60be 92b9 833e
00000190: 86a6 adbe 75db 5d3e c150 6dbe ec1c 2bbe
000001a0: 9026 16be d317 0dbe e625 98bd 7579 f5be
000001b0: 94ac f7bc eac7 14be 880d 833e 2b45 48be
000001c0: 2c0d 74be 8b47 39be 9cc5 2abe 8c53 33be
000001d0: 3880 d3be 7dca 15be e8e8 433e 0795 563e
000001e0: 8f7e 53be c9b1 0bbe 1129 a3bd 8591 b0be
000001f0: 806d cfbe ac1e 89bd c9b5 febd cb86 55be
00000200: 4884 13be 4942 503e 8e57 c7bd 9737 a3bd
00000210: 8392 6ebe b0fa 9abe bd84 d03e 58a9 01be
00000220: 14a9 b43e 5b57 d43e fb62 efbd 268f f63d
00000230: 56bf 5bbe 2842 873e 3c90 663e d545 1ebe
00000240: 26cd 08be 3a12 9fbd 60fe 233e 308d 0bbe
00000250: 0fb1 7e3e a5cc 8139 e2bd dbbd 276c 75bd
00000260: 4794 74be da1b 613e 9a17 933e 9805 55be
00000270: 5589 d03e ace7 1b3c b65b 7fbe 762a 943e
00000280: 83d0 d93e 643a dfbe a871 4bbe 3fa5 563e
00000290: 5de1 40be 8a19 793e aabf c5be a931 1abe
000002a0: 5f80 27be c082 11be 3b9b 58be 0f48 c2be
000002b0: 0abf 40be 21c6 51be d501 693e 0dd4 2fbe
000002c0: c6ba 71be 8c92 07be ee2a 8fbd 6b4b dfbd
000002d0: aecc e6be 1210 2fbe 6d67 2a3e 62d3 4f3e
000002e0: 5059 65bd ef58 01be 85fb 5ebe 0e48 7ebe
000002f0: 96a9 61be 4f69 4abe 8f61 50be a0ea 13be
-0.18400258 0.012003506 -0.21242064 -0.22929241 -0.25330338 -0.276595 0.32872716 -0.12028809
0.49992943 0.34134737 -0.17802489 -0.076015234 -0.01598422 0.31715506 0.26947376 -0.07587859
-0.09392896 -0.23276643 0.25395486 -0.17309651 0.18838397 0.040673643 -0.21173677 -0.20969065
-0.012321344 -0.33225974 0.11496803 -0.09627981 0.13388017 0.105196826 -0.050568815 0.45592198
0.4942027 -0.43215486 -0.21295793 0.28542587 -0.32506698 0.22014105 -0.41012117 -0.18177211
-0.18809237 -0.13964699 -0.22258629 -0.44981357 -0.1657437 -0.2078738 0.2745023 -0.13609202
-0.18505374 -0.16586676 -0.22587234 -0.22306798 -0.52946454 -0.04779199 0.22898601 0.22268674
-0.08990421 -0.19415289 -0.1710806 -0.2969286 -0.2974167 -0.182004 -0.19901037 -0.12160312
-0.06979661 0.069056556 -0.19828007 -0.074396946 -0.26818323 -0.31442523 0.44417098 -0.23542386
0.35273337 0.3616695 -0.28117222 -0.04725808 -0.21280058 0.3832818 0.16982327 -0.18228479
-0.12431865 -0.19133443 0.16312283 -0.14697249 0.19558561 -0.0020282536 -0.16601686 -0.16454123
-0.16410826 0.16949782 0.19363916 -0.16017964 0.23581924 0.086165875 -0.0016064742 0.094595306
0.5046996 -0.43453646 -0.21929298 0.25727516 -0.3391611 0.21665747 -0.23175336 -0.16710252
-0.14663148 -0.1377862 -0.074291036 -0.47944227 -0.030233659 -0.14529386 0.2559626 -0.19557635
-0.2383315 -0.18093698 -0.16676944 -0.1751234 -0.4130876 -0.14628024 0.19131815 0.20955287
-0.20653747 -0.13642038 -0.07966817 -0.34486023 -0.4051323 -0.06695303 -0.124370165 -0.208522
-0.1440593 0.20337786 -0.097334966 -0.07969587 -0.23298077 -0.30269384 0.4072627 -0.12662256
0.35285246 0.41472897 -0.11688801 0.12039022 -0.21459708 0.2641766 0.22515959 -0.15456326
-0.13359508 -0.07767148 0.16015005 -0.13628078 0.2487223 0.0002475727 -0.10729577 -0.059917595
-0.23884688 0.21983281 0.28728944 -0.20802915 0.40729776 0.009515684 -0.24937329 0.28938645
0.42541894 -0.43599236 -0.19867575 0.20961474 -0.1883597 0.24326149 -0.3862279 -0.15058006
-0.16357563 -0.14210033 -0.21152966 -0.379456 -0.18822876 -0.20485736 0.22754605 -0.17170735
-0.23606405 -0.13239497 -0.0699061 -0.10903057 -0.45078033 -0.17095974 0.16641016 0.2029548
-0.05599338 -0.12631582 -0.21775635 -0.24832174 -0.22037348 -0.19766735 -0.20349716 -0.14444971

4.bias f4 [3]
00000000: 5cde 89be 3f0c 5fbe deaa 77be
-0.2692746 -0.21782015 -0.24186274
